model/keypoint_classifier/keypoint_classifier.tflite (tflite, 7312 bytes, 6 tensors)

sequential/dense_2/BiasAdd/ReadVariableOp/resource f4 [26]
0	0xbf81fe75	-1.0155779
1	0x3fd2103d	1.6411206
2	0xbe7433a6	-0.23847827
3	0x3e823c69	0.25436714
4	0x3f631eb7	0.8871874
5	0xbf133af5	-0.57511836
6	0xbfb39c0f	-1.4032
7	0xbf14dfc6	-0.5815395
8	0x402c1675	2.6888707
9	0xbf85eaaa	-1.0462239
10	0xbe8c1f86	-0.273678
11	0x3e104f59	0.14092769
12	0xbeba848e	-0.36429256
13	0x3e456cec	0.19279832
14	0xbfcf6c25	-1.6204878
15	0x3e151875	0.14560111
16	0xc05037ab	-3.2533977
17	0x3f6c06bf	0.92197794
18	0xbf64db50	-0.89397144
19	0x3f36c88e	0.7139977
20	0xbf04be28	-0.51852655
21	0x3f656976	0.89614046
22	0xbf083e99	-0.53220516
23	0x3f319da2	0.69381154
24	0x3ecee600	0.4040985
25	0x3f33d1e0	0.7024212

sequential/dense_1/BiasAdd/ReadVariableOp/resource f4 [10]
0	0x402158be	2.5210414
1	0x3febb64a	1.8415005
2	0x3da5a24d	0.08087597
3	0x3fac2c0c	1.3450942
4	0x3fd0f886	1.6325843
5	0x3f1fbf72	0.624015
6	0x3ee5e4d5	0.44901147
7	0xc023910f	-2.5557287
8	0x3f22b5ae	0.6355847
9	0x3fd42a0a	1.6575329

sequential/dense/BiasAdd/ReadVariableOp/resource f4 [20]
0	0x3f2f02a8	0.6836343
1	0xbbda497d	-0.0066615925
2	0xbf943c9c	-1.1580997
3	0xbfdc7b53	-1.7225136
4	0x3ee7d8d7	0.45282623
5	0xbf71c670	-0.94443417
6	0xbfe65a2e	-1.7996271
7	0xbe4aaa94	-0.19791633
8	0x3f0f3a7e	0.55948627
9	0x3f0182d7	0.5059027
10	0xbf3c7c28	-0.7362695
11	0xbdf243f8	-0.1182937
12	0xbfd5219c	-1.6650882
13	0xbf4af99e	-0.79287136
14	0x3e7b522a	0.24543062
15	0xbfd32224	-1.6494794
16	0x3ed3a5a8	0.41337323
17	0xbf421f25	-0.7582877
18	0xbf949770	-1.1608715
19	0xbf4b12b1	-0.79325396

sequential/dense/MatMul f4 [20, 42]
0	0x3e1cdbb2	0.15318182
1	0x3e00a516	0.12562975
2	0x3e5db020	0.21649218
3	0xbe36b901	-0.17844011
4	0x3d9fc660	0.07801509
5	0x3cb3b907	0.021938814
6	0xbd6fea0c	-0.058572814
7	0x3d35a869	0.04435006
8	0x3d8cc577	0.06873601
9	0xbc4454ae	-0.01198308
10	0x3f8d59a6	1.1042984
11	0x3e16741a	0.14692727
12	0x3f600594	0.8750851
13	0x3ddef5a1	0.10886694
14	0x3f7b4896	0.9815763
15	0x3e327538	0.17427528
16	0x3f8956eb	1.072965
17	0x3e5e6421	0.21717884
18	0x3f8bad4d	1.0912262
19	0x3de2d6b4	0.110761076
20	0x3f03c869	0.51477677
21	0x3e0a7723	0.1352201
22	0x3d9cf592	0.07664026
23	0x3ec0a159	0.37623098
24	0xbdd5db35	-0.10442201
25	0x3f0673b3	0.52520293
26	0x3e1e9f11	0.15490367
27	0x3e1698f2	0.14706782
28	0x3db82591	0.0899154
29	0x3de892c6	0.1135612
30	0x3e5c1053	0.21490602
31	0x3eb1f6d3	0.34758624
32	0x3f58a5a4	0.8462775
33	0x3f0684bd	0.5254629
34	0xbe2c7909	-0.16843046
35	0xbc0d9d72	-0.008643495
36	0x3e3b3088	0.18280232
37	0xbe0569ad	-0.13028593
38	0x3f946739	1.1594001
39	0xbedf8d0b	-0.43662295
40	0x3fe33321	1.7749978
41	0xbf8ce4ed	-1.1007363
42	0x3e4689b8	0.19388473
43	0xbdf44fb4	-0.11929265
44	0x3e3b2cc6	0.18278798
45	0x3f39cbf3	0.72576827
46	0x3d9fd780	0.07804775
47	0x3e3cab9b	0.18424837
48	0x3e30b2bf	0.17255686
49	0x3e027b33	0.1274231
50	0x3e98c544	0.29838002
51	0x3dad1e37	0.08453029
52	0x3c7b1f0c	0.015327226
53	0x3d36dfb0	0.04464692
54	0xbe081506	-0.1328927
55	0x3cbc3e5b	0.022978952
56	0xbd6a647d	-0.05722474
57	0x3d83060a	0.06397636
58	0xbd84461b	-0.06458684
59	0x3cd5ce3b	0.026099315
60	0xbef5bac9	-0.47994068
61	0x3d305e2e	0.043058567
62	0x3df92353	0.12164941
63	0xbc443041	-0.011974395
64	0x3f1a61e8	0.60305643
65	0xbcf6def8	-0.030135617
66	0x3f4482ef	0.7676229
67	0xbd9ac9b3	-0.07558002
68	0xbf20b40c	-0.6277473
69	0x3d1b7ca2	0.037960656
70	0xbe1ed681	-0.15511514
71	0x3d046872	0.03232617
72	0x3fc0af94	1.5053582
73	0x3d00d7c0	0.031455755
74	0x3fcc04cd	1.5938965
75	0x3d1b750a	0.037953414
76	0xbe900250	-0.28126764
77	0x3d367bde	0.044551723
78	0xbe891d2a	-0.26780063
79	0x3d4a52f0	0.0493955
80	0xbe15dd8a	-0.14635292
81	0x3d7645d3	0.060125183
82	0xbe19dcae	-0.15025589
83	0xbffec58d	-1.9904038
84	0x3d4c7b88	0.049922496
85	0x3e4238cc	0.18966979
86	0xbdf33701	-0.118757255
87	0xc0507e5d	-3.2577126
88	0x3e564f5d	0.20928712
89	0xbeed6f4e	-0.4637398
90	0x3e2cc193	0.16870718
91	0xbe57cb0a	-0.21073547
92	0xbe6c93e9	-0.23103298
93	0xbdbb8d26	-0.09157781
94	0x3f07fd87	0.5312123
95	0xbdafd0ae	-0.08584724
96	0x3e265584	0.16243559
97	0xbd535210	-0.051591933
98	0xbd47e871	-0.048805658
99	0x3823e7a8	3.9077975e-05
100	0xbdbcf731	-0.092268355
101	0x3c9aebef	0.01891133
102	0x4014539f	2.3176038
103	0xbc9ad2bb	-0.018899312
104	0x3f88d32e	1.0689447
105	0xbc8f75f1	-0.017512294
106	0x3d154bf2	0.03644938
107	0x3cf8eb3d	0.030385608
108	0xbcd38923	-0.025822228
109	0x3d3f6be6	0.04673376
110	0x3f76faa2	0.96476185
111	0xbce1c765	-0.027560899
112	0x40236b66	2.55343
113	0xbda8a73a	-0.08235021
114	0x3cd6ca6b	0.026219567
115	0xbdd9a116	-0.10626428
116	0xbff87139	-1.9409553
117	0xbddc9df5	-0.107723154
118	0x3e2fbf58	0.17162836
119	0xbc097a1e	-0.008390931
120	0x3f3450d1	0.70435816
121	0xbdc15ad0	-0.09441149
122	0x3eca7fe7	0.39550707
123	0xbe1d799c	-0.15378422
124	0x3dc09539	0.09403462
125	0xbe08a78f	-0.13345169
126	0x3e4969e0	0.19669294
127	0x3e02266e	0.12709972
128	0x3ded2187	0.115786605
129	0xc0256f05	-2.584901
130	0x3e99e89b	0.30060276
131	0xbf29db68	-0.6635041
132	0x3f099abc	0.5375173
133	0xbeddccdb	-0.43320355
134	0x3f2049df	0.6261272
135	0xbfd26264	-1.6436276
136	0x3d81d0a6	0.06338625
137	0x3c51580a	0.012777338
138	0xbece39bf	-0.40278432
139	0xbb0bc416	-0.0021326593
140	0xbf712f73	-0.94213027
141	0x3a414320	0.0007372368
142	0xbfb32b1c	-1.3997531
143	0x3cb4ea0f	0.022084264
144	0x3da0e4b7	0.07856124
145	0x3cfa56d4	0.030558981
146	0x3d1a5ae7	0.037684347
147	0x3cad5f3f	0.021163581
148	0xbdf71d89	-0.1206618
149	0xbb98cf72	-0.0046634013
150	0xbe15b203	-0.14618687
151	0xbba7b064	-0.005117463
152	0x3f4c7036	0.7985872
153	0x3d34315f	0.043992396
154	0x3f824e78	1.0180197
155	0x3be017c6	0.0068387715
156	0x3f27c0bc	0.65528464
157	0xbd5cd6fe	-0.05391597
158	0x3f791615	0.9729932
159	0xbda48289	-0.0803271
160	0x3ebbf361	0.3670912
161	0x3d9eb7a7	0.07749873
162	0xbe1cce86	-0.15313157
163	0x3cfa94b2	0.030588482
164	0xbf2eebb6	-0.68328416
165	0x3dab9a4a	0.08379038
166	0xbf21e456	-0.6323904
167	0x3cee56b1	0.029094072
168	0x3e5464d4	0.20741588
169	0x3d62f0b0	0.05540532
170	0x3e74a2a7	0.23890172
171	0x3f13a659	0.576757
172	0x3e0ae67d	0.13564487
173	0x3f0247e5	0.5089095
174	0xbe3e86cc	-0.18606108
175	0x3f16072f	0.5860471
176	0xbf17f92f	-0.593646
177	0x3eb3e0d6	0.35132474
178	0xbf075809	-0.52868706
179	0x400ecdfd	2.2313225
180	0xbf0cdd10	-0.55024815
181	0x3ff03b6b	1.8768133
182	0xbf055140	-0.520771
183	0x3fc8b1ad	1.5679222
184	0xbf1484ff	-0.58015436
185	0x3f8cd037	1.1001042
186	0xbf402941	-0.7506295
187	0x3fe8fa2d	1.8201348
188	0xbf029963	-0.510153
189	0x3f8d0c93	1.1019462
190	0xbe7b9a50	-0.24570584
191	0x3f5d8c15	0.86541873
192	0xbee50623	-0.44731244
193	0x3f1d481b	0.6143815
194	0xbf3e6b5e	-0.7438258
195	0x3fcfcb87	1.6233987
196	0xbf1bf69f	-0.6092319
197	0x3f7fb1eb	0.99880856
198	0xbeb500f3	-0.35352287
199	0x3f69c64f	0.9131822
200	0xbea62a64	-0.32454216
201	0x3f18d38a	0.59697783
202	0xbf4897ae	-0.78356445
203	0x3f9825e2	1.1886561
204	0xbf1f430d	-0.62211686
205	0x3f557363	0.8337919
206	0xbee88e01	-0.4542084
207	0x3f3b76ff	0.7322845
208	0xbec5bcae	-0.38620514
209	0x3f33c198	0.70217276
210	0x3dff6270	0.12469947
211	0x3e92fca6	0.2870838
212	0xbdeb9c8e	-0.1150447
213	0xbef8ccd3	-0.48593768
214	0xbda68c02	-0.08132173
215	0xbd296449	-0.041355405
216	0xc0052157	-2.08016
217	0xbcf8042c	-0.030275427
218	0xbf9ec871	-1.240492
219	0xbd11d437	-0.035602774
220	0x3d5de79a	0.05417595
221	0xbcc09192	-0.023506913
222	0xbd52814c	-0.05139284
223	0xbca837ae	-0.020534363
224	0xbe1164cc	-0.14198607
225	0xbbc8f477	-0.006132658
226	0xbe711c08	-0.2354585
227	0xbbce0bd7	-0.0062880325
228	0x3ece3474	0.40274394
229	0xbca82330	-0.020524591
230	0x3e8ec845	0.2788717
231	0x3aa32940	0.0012448207
232	0xbc856668	-0.016284183
233	0x3b5e23d9	0.0033895879
234	0x3d1b42b7	0.03790542
235	0x3c710979	0.014711731
236	0x3ec4e228	0.38453794
237	0xbc074c6f	-0.008257969
238	0x3f1b3789	0.60631615
239	0xbb207caf	-0.002448838
240	0x3f0df748	0.55455446
241	0xbbb61044	-0.005556138
242	0x3f5434eb	0.82893246
243	0x3b942729	0.00452127
244	0x3e00a14e	0.12561533
245	0xbd264b9d	-0.040599454
246	0x3ea91ac9	0.33028248
247	0xbccefafb	-0.025266161
248	0x3ebfe3ed	0.3747858
249	0xba789d6f	-0.00094839087
250	0x3f0dff5e	0.55467784
251	0xbd0b2858	-0.03397402
252	0x3e1dd78a	0.15414253
253	0x3e396228	0.1810385
254	0xbf25a7c4	-0.64709115
255	0xbea2d8fc	-0.3180617

sequential/dense_1/MatMul f4 [10, 20]
0	0xbe449b7e	-0.1919994
1	0xbdf6308d	-0.12020979
2	0x3eaa1830	0.3322158
3	0x3fb34fcf	1.4008731
4	0xbf54e7aa	-0.8316599
5	0xbffcf91b	-1.9763521
6	0xbe8c579c	-0.2741059
7	0x3ed41967	0.4142563
8	0x3c437110	0.011928812
9	0xbf15b8b2	-0.5848495
10	0x3f08cbb1	0.5343581
11	0x3f1bd874	0.60877156
12	0xbe0acfac	-0.13555783
13	0xc009944e	-2.1496768
14	0x3fa96ac5	1.3235708
15	0xc091643d	-4.543486
16	0xbe660a3f	-0.22464846
17	0xc02d0b77	-2.7038248
18	0x3e30fcee	0.17283985
19	0x3f88ac5e	1.0677602
20	0xbf36302a	-0.7116724
21	0xbf73c39f	-0.9522037
22	0xbf02c8a0	-0.5108738
23	0x3dbc890c	0.09205827
24	0xbef41670	-0.47673368
25	0x3f8f066c	1.1173835
26	0xbecb7253	-0.3973566
27	0xc00473d9	-2.0695708
28	0x3f91966d	1.1374031
29	0x3f8b10c2	1.0864489
30	0xbe1ee003	-0.15515141
31	0x3f0099d3	0.5023472
32	0xbe104880	-0.14090157
33	0xbdb88382	-0.09009458
34	0xbf42c21f	-0.76077455
35	0xbf9e89ce	-1.2385805
36	0xbfdb4feb	-1.7133764
37	0x3f46221c	0.77395797
38	0x3f212c80	0.62958527
39	0x3fcaa599	1.5831786
40	0x3f5436f9	0.8289638
41	0xbf478e15	-0.77951175
42	0x3fb5cd86	1.4203346
43	0x3f25dc7a	0.64789546
44	0xbf3240af	-0.6962995
45	0x3dba6271	0.091008075
46	0x3d8a1e94	0.067441136
47	0x3ee54f65	0.44787136
48	0xbedd2ba6	-0.43197364
49	0x3f17dbb6	0.5931963
50	0x3fa1d0f8	1.2641897
51	0x3f8c0761	1.0939752
52	0x3e3b7945	0.1830798
53	0x3d0f93a1	0.0350529
54	0x3f5e0f35	0.86741954
55	0x3fab0b06	1.3362739
56	0x3f5706e5	0.83994895
57	0x3d0f5ff6	0.035003625
58	0x3e9ebfec	0.310058
59	0x3fbeb7f3	1.4899887
60	0xbfd35591	-1.6510488
61	0x3eac1be1	0.3361502
62	0x3ebf0c1d	0.3731393
63	0x3f5e9f5b	0.8696191
64	0x3f2ecd33	0.6828186
65	0x3e36d018	0.17852819
66	0x3e748407	0.2387849
67	0x3db29362	0.08719517
68	0x3fa7b838	1.3103094
69	0xbd8ffe6a	-0.070309475
70	0x3e6292ab	0.22126262
71	0x3d7880dc	0.060669765
72	0x3f9af80d	1.2106949
73	0xbe14a25b	-0.14515059
74	0x3f598bf9	0.84979206
75	0x3f4a1430	0.78937054
76	0x3f0e61a6	0.5561775
77	0xbd216c6b	-0.039410036
78	0x3f996fb4	1.1987214
79	0xbdd765be	-0.10517453
80	0x3d9f94f2	0.07792081
81	0x3f89d2a1	1.0767404
82	0xbf3ea75e	-0.7447413
83	0xbedf1066	-0.435672
84	0x3f9b81a5	1.2148939
85	0xbe795663	-0.2434936
86	0xbe755c98	-0.23961103
87	0xbf544f91	-0.8293391
88	0x3e8b7e0e	0.2724461
89	0xbd8ab1af	-0.06772172
90	0xbfae9239	-1.3638374
91	0xbe2002b5	-0.15626033
92	0x3ea33e18	0.3188331
93	0x3e46bb49	0.19407381
94	0x3fd6e051	1.6787206
95	0x3ec986a9	0.3936055
96	0x3f87903b	1.0590891
97	0xbdc240ee	-0.094850406
98	0x3ee269d3	0.44221362
99	0xbf4881c2	-0.78322995
100	0xbe8850ce	-0.2662415
101	0x3ecc7f47	0.39940855
102	0xbe670e69	-0.22564091
103	0x3f854d82	1.0414279
104	0xbe7f1584	-0.24910551
105	0x3f481c3d	0.7816809
106	0x3ffc261e	1.9699132
107	0xbf608285	-0.87699157
108	0xbec9af2a	-0.39391452
109	0x3e015d4e	0.12633249
110	0xbeac4179	-0.33643702
111	0x3fa68eb9	1.3012305
112	0x400a0d30	2.157055
113	0x3f8b2a51	1.0872289
114	0xbe67776c	-0.2260415
115	0xbe0177bd	-0.12643333
116	0xbda0acf5	-0.07845489
117	0x3eff726d	0.49891987
118	0x3ff5c3ec	1.9200416
119	0xbf857ed6	-1.0429332
120	0x3d638f00	0.055556297
121	0x3fff4640	1.9943314
122	0x3f01dded	0.50729257
123	0xbd67e127	-0.056611206
124	0xbed933ea	-0.4242242
125	0x3f23c27d	0.6396864
126	0x3c889929	0.016674595
127	0x3cab648d	0.02092197
128	0x3e40fc72	0.188463
129	0xbf2764eb	-0.65388364
130	0x3e25cb5b	0.16190855
131	0xbf843ca4	-1.0331006
132	0x3f2ec1bf	0.68264383
133	0x3f5a9a16	0.85391366
134	0x3ed68ea8	0.41905713
135	0x3eb63178	0.35584617
136	0xbf42d839	-0.7611118
137	0x3ec9f84f	0.39447257
138	0x3f4749ef	0.7784719
139	0x3fee0eed	1.8598305
140	0x3f90cde9	1.1312839
141	0x3fd2428f	1.6426562
142	0x3f216d4a	0.63057387
143	0x3e8aa87c	0.27081668
144	0x3f5e702c	0.8688991
145	0x3ead6a3d	0.33870116
146	0x3eda5e15	0.42649904
147	0x40133fd0	2.3007698
148	0x3f572a94	0.84049344
149	0x3f18656b	0.5952975
150	0x3f19f876	0.60144746
151	0x3fa2213d	1.2666394
152	0x3e3d50b2	0.18487814
153	0x3e804f29	0.25060394
154	0x3fd6e782	1.67894
155	0x3ed534b6	0.41641778
156	0x3f8eff3a	1.1171639
157	0x3e0f533e	0.13996598
158	0x3f5f9c81	0.8734818
159	0x3f0cd205	0.55007964
160	0x3e153509	0.14571013
161	0x3e243456	0.1603559
162	0x3ed2b378	0.4115255
163	0x3f5c6b13	0.8610088
164	0x3daffc7a	0.08593078
165	0x400244f0	2.0354576
166	0x3fefa1da	1.8721268
167	0x3c5e6fc6	0.013576454
168	0xbea961b3	-0.3308235
169	0x3ebbcfbc	0.36681926
170	0x3e3f02f2	0.18653467
171	0xbe426de0	-0.18987226
172	0x3ee0139c	0.4376496
173	0x3f2dcdb0	0.6789198
174	0xbe5d6919	-0.21622123
175	0xbfb396ab	-1.4030355
176	0x3d8e3c15	0.069450535
177	0x3fa10093	1.25783
178	0xbdfcb863	-0.123398565
179	0xbdf5a6ce	-0.11994706
180	0x3ed1251e	0.4084863
181	0xbf799c55	-0.9750417
182	0x3f6f5aac	0.9349773
183	0xbebeb6ec	-0.37248933
184	0x3f183773	0.5945961
185	0xbf223b9c	-0.63372207
186	0xbf584c4f	-0.8449144
187	0x3ea4d3f5	0.3219296
188	0xbebcdbd4	-0.36886466
189	0x3fafd195	1.3735834
190	0x3f3293af	0.697566
191	0x3fb7bbcf	1.435419
192	0xbf877fe2	-1.0585902
193	0xbfb769e4	-1.432919
194	0x3ec486ba	0.38384038
195	0xbf347b2f	-0.70500463
196	0x3e8249ad	0.25446835
197	0xbec50a5e	-0.38484472
198	0xbec30741	-0.38091472
199	0xbf0f7909	-0.5604406

sequential/dense_2/MatMul f4 [26, 10]
0	0xbea53f22	-0.3227473
1	0x3c34b2c3	0.011028948
2	0x3f4eb34a	0.80742323
3	0xbf1ad86b	-0.6048648
4	0xbf3f692e	-0.74769866
5	0x3e1826bc	0.14858526
6	0x3cc07458	0.023492977
7	0xbf89147d	-1.0709378
8	0x3e6d0226	0.23145351
9	0xbf4e10a4	-0.8049414
10	0xbf80d699	-1.006549
11	0x3cbb935f	0.02289742
12	0xbfbce417	-1.4757107
13	0x3d9ed261	0.0775497
14	0x3f8d9928	1.1062365
15	0x3e831750	0.25603724
16	0x3ee920c8	0.45532823
17	0xbfb35312	-1.4009726
18	0xbff8c954	-1.943644
19	0xbecf31c5	-0.4046766
20	0xbf3c8e01	-0.7365418
21	0x3f4ed4bb	0.8079335
22	0xbe76d814	-0.24105865
23	0xbea6c338	-0.32570815
24	0x3d97ba05	0.07408527
25	0x3e0669a7	0.1312624
26	0xbdc8e51c	-0.09809324
27	0x3df0aa43	0.11751225
28	0xbf1ac3cf	-0.6045503
29	0x3e4b6bae	0.19865295
30	0xbf615d51	-0.88033015
31	0x3e8f8857	0.28033707
32	0xc0331c45	-2.7986004
33	0xbdcb1aba	-0.09917207
34	0x3d88cdb0	0.06679857
35	0x3f212cb5	0.6295884
36	0xbe3d65eb	-0.1849591
37	0xbf584467	-0.84479374
38	0xbe4a81a7	-0.19776021
39	0x3fb1006e	1.3828256
40	0xbf12c988	-0.5733876
41	0x3e03d4af	0.12874101
42	0xbfc7bc81	-1.5604402
43	0x3e16bcaa	0.14720407
44	0xbdc4eee6	-0.09615879
45	0x3e90e75a	0.28301507
46	0x3ea65e73	0.32493934
47	0xbf3b15b1	-0.73079973
48	0xbe28b0da	-0.16473714
49	0xbf4c9223	-0.79910487
50	0xbf1b3744	-0.60631204
51	0x3ecb71bc	0.3973521
52	0xbf839a09	-1.0281383
53	0x3d8eb0b8	0.069673
54	0xbe61a362	-0.22034982
55	0xbd0ef28b	-0.034899276
56	0x3f8d0f17	1.102023
57	0xbf6ee931	-0.9332457
58	0xbf0d98d1	-0.55311304
59	0xbf63dc2f	-0.8900785
60	0xbefde291	-0.4958692
61	0xbf3235d4	-0.69613385
62	0xbdccdbb5	-0.10002843
63	0xbf1927db	-0.5982644
64	0x3afeb359	0.0019432112
65	0xbe42de67	-0.19030152
66	0xbe24eba7	-0.16105519
67	0x3e984db8	0.29746795
68	0x3cf5d361	0.03000802
69	0x3f426761	0.75938994
70	0xbeeee212	-0.46656853
71	0xbe383960	-0.17990637
72	0x3e493564	0.19649273
73	0xbf170a93	-0.5900051
74	0x3dce200a	0.10064705
75	0x3e1aeb39	0.15128793
76	0x3ebacc0c	0.364838
77	0x3e9e8558	0.30961108
78	0xbe5108ce	-0.20413515
79	0x3dfa4367	0.12219887
80	0xbf3dc406	-0.74127233
81	0xbf4f497f	-0.8097152
82	0xbf0103c1	-0.50396353
83	0xbfc72958	-1.5559492
84	0x3f8f01f6	1.1172473
85	0xbf111492	-0.5667201
86	0x3de30d18	0.11086482
87	0xbf5aa2d4	-0.85404706
88	0x3f514698	0.8174834
89	0xbef733c6	-0.48281687
90	0xbf13d3ed	-0.5774525
91	0xbf63f30c	-0.89042735
92	0x3e4002f4	0.18751127
93	0xbef29bcc	-0.4738449
94	0xbe848bc1	-0.25887874
95	0xbe75e52d	-0.24013205
96	0x3da3aca2	0.079919115
97	0x3ebd747c	0.37002933
98	0x3ef02dc2	0.4690991
99	0xbe0461e1	-0.12927963
100	0x3fa5aac9	1.2942744
101	0xbf47a78f	-0.7799005
102	0xbf069e64	-0.52585435
103	0x3f128068	0.5722718
104	0xbf11e786	-0.569939
105	0xbfbb058a	-1.4611065
106	0x3eb9e586	0.36307925
107	0xbfe6cdc3	-1.8031543
108	0xbf5e099b	-0.86733407
109	0xbe82636e	-0.25466484
110	0x3f01d71f	0.50718874
111	0x3f649caf	0.8930158
112	0xbed25bc5	-0.4108564
113	0xbdef4efc	-0.11684987
114	0xbf54784d	-0.82996064
115	0xbf938d23	-1.1527447
116	0xbf04f857	-0.51941437
117	0xbfddb40c	-1.7320571
118	0x3ed1aed2	0.4095369
119	0xbe5b3d4f	-0.21410106
120	0xbed9f3ce	-0.4256882
121	0xbf9b879f	-1.2150763
122	0x3e2b2d17	0.16716419
123	0x3f1e46d6	0.6182684
124	0x3e508a9c	0.20365375
125	0x3eab9244	0.3351003
126	0xbf12d15e	-0.5735072
127	0xbe6aedd0	-0.22942281
128	0xbe4b4e81	-0.19854166
129	0x3e017827	0.1264349
130	0xbf52a616	-0.8228468
131	0x3ee78b0e	0.45223278
132	0xbda595e1	-0.08085228
133	0x3e1f31f7	0.15546404
134	0xbf35a873	-0.7096016
135	0x3f4054b6	0.7512926
136	0xbf4c6b66	-0.79851377
137	0xbf99ebe7	-1.2025117
138	0xbeab7119	-0.33484724
139	0xbec56962	-0.38556963
140	0xbf5b54c7	-0.85676235
141	0x3eb4aa82	0.35286337
142	0x3e5106a2	0.20412686
143	0x3ecf6178	0.4050405
144	0xbf4a0c57	-0.7892508
145	0x3cbbba08	0.022915855
146	0xbdef785c	-0.116928786
147	0x3b45da93	0.0030190095
148	0xbe77d756	-0.24203238
149	0x3e5da66e	0.21645519
150	0xbf7e14e8	-0.9925065
151	0xbe92c37c	-0.28664768
152	0x3eae68fc	0.34064472
153	0xbe86968a	-0.26286727
154	0x3e92e8d3	0.28693256
155	0xbf3088b8	-0.68958616
156	0x3e111d48	0.14171326
157	0x3eeb3d8f	0.45945403
158	0xbf64964c	-0.89291835
159	0x3e12e55d	0.14345308
160	0xbf4e0465	-0.80475456
161	0xbd32876d	-0.043586183
162	0x3efaf465	0.49014583
163	0xbe905dae	-0.28196472
164	0x3e83565e	0.2565183
165	0xbd4c6850	-0.049904168
166	0x3e53409e	0.20630118
167	0x3efa5041	0.48889354
168	0xbe457f8b	-0.19286935
169	0xbe9f1f8a	-0.3107875
170	0x3fa172f8	1.2613211
171	0x3fbb820f	1.4649066
172	0xbfcb3ceb	-1.5877966
173	0xbf0e9605	-0.5569766
174	0xc0040c87	-2.0632646
175	0xbfaea5c8	-1.3644342
176	0xbff335c2	-1.900078
177	0xc00df4d7	-2.2180688
178	0xc03fc89e	-2.9966197
179	0x3fa24882	1.2678378
180	0xbe64c948	-0.22342408
181	0xbe61e072	-0.22058275
182	0xbf105450	-0.5637865
183	0xbd9e751c	-0.077371806
184	0xbf1e4ca0	-0.6183567
185	0x3e6bc895	0.23025735
186	0x3f2ef696	0.6834501
187	0xbfb7c7c7	-1.4357842
188	0x3e314f36	0.17315373
189	0xbf60eb14	-0.878587
190	0xbf4ab4f1	-0.79182345
191	0xbecd59cc	-0.40107572
192	0x3f141afb	0.5785367
193	0x3eaebcc3	0.3412839
194	0xbf13f256	-0.5779165
195	0xbce9b30e	-0.028527763
196	0xbe539493	-0.20662145
197	0xbfdafcf8	-1.710845
198	0x3ead9410	0.33902025
199	0xbf19d184	-0.6008532
200	0x3eb7e17b	0.35914215
201	0xbe0116bb	-0.12606327
202	0xbea09120	-0.31360722
203	0x3f70f0fa	0.941177
204	0xbf1986a4	-0.5997107
205	0xbecc2f91	-0.3988004
206	0xbf5d31c8	-0.86404085
207	0xbfd08c5b	-1.6292833
208	0xbf853398	-1.040637
209	0x3f3937eb	0.7235095
210	0x3f9c16ef	1.2194499
211	0xbf12cf9d	-0.5734804
212	0xbf94c3f8	-1.1622305
213	0x3ed99fb2	0.4250465
214	0xbe0e099d	-0.13870855
215	0xbff4e7a2	-1.9133189
216	0x3f26c63f	0.6514625
217	0xbf9f7f38	-1.2460699
218	0xbfb2dffe	-1.3974607
219	0xbef1679d	-0.47149363
220	0x3f378b7b	0.71697205
221	0xbf4ba6c4	-0.7955134
222	0xbfb5367e	-1.4157255
223	0x3f6e9382	0.9319383
224	0x3f5f9dce	0.87350166
225	0x3dde7035	0.108612455
226	0xbf0bd41a	-0.54620516
227	0xbf9d1aa1	-1.2273751
228	0xbfc1bb3a	-1.5135262
229	0xbfad4ff6	-1.3540027
230	0xbf1a2815	-0.6021741
231	0x3da9873f	0.08277749
232	0x3f0b0511	0.54304606
233	0x3dc32e25	0.09530286
234	0x3da55489	0.080727644
235	0xbcb0958a	-0.02155568
236	0xbee887af	-0.45416018
237	0xbf9eaf4c	-1.2397246
238	0x3e7b54b4	0.2454403
239	0xbf0cf2b4	-0.55057836
240	0xbe161683	-0.14657025
241	0xbf46cc24	-0.77655244
242	0x3e06e551	0.13173415
243	0xbfa5034d	-1.2891632
244	0xbf09b71d	-0.53795034
245	0xbee6c632	-0.45073086
246	0x3f3b0503	0.7305452
247	0xbec7306d	-0.38904133
248	0x3f362c42	0.7116128
249	0xbeb7a366	-0.3586685
250	0xbc68c3e6	-0.014206862
251	0xbf26f028	-0.652102
252	0x3d9fa923	0.07795932
253	0xbfd48f18	-1.6606169
254	0xbe1d947a	-0.1538867
255	0xbd077e65	-0.033079524
